model3_27.pt (torch, 202357 bytes, 16 tensors)

cnn.0.weight f4 [16, 3, 3, 3]
00000000: 1cc4 8dbc 4b46 c5be 4601 22bf 328f 143e
00000010: 4461 4ebd da61 54be 7375 4e3f 4bf7 1b3f
00000020: 949b 6bbe beb7 39bd 0a5c 2ebf a185 24bf
00000030: 8112 2a3e 476e b7bd a9e9 c3be d8b8 883f
00000040: aa57 3d3f 9e00 bb3d a841 0ebe cf15 b2be
00000050: c9b7 a6bd bcec 173e df12 bbbd 84eb 953d
00000060: 94e7 753e bc46 173e 9104 cdbd 79fa c9bc
00000070: b91b dcbd 54ba c7bc 8303 393d abd7 593e
00000080: f58b 0fbd 4456 e3bc d934 16bd d896 d13b
00000090: d4e0 ab3b 2fce 063e 2fd6 993d 9f66 2b3e
000000a0: 2036 433c 2a8c 58bd d2c7 263d 7c0c 0abe
000000b0: 61a6 f139 a3a6 a3bd bd51 02bc 6688 44bd
000000c0: ae20 dbbd bce0 fbbd 1086 b5bc 5089 0a3e
000000d0: f74b beba 95d6 b7bc f016 2d3f 0022 0dbf
000000e0: c900 a3be c899 463f 26e0 84be 7ecd b9be
000000f0: d035 0e3f 4e7d acbc 16a2 aa3d ebaa 103f
00000100: 15ab 67be 020b 8abd 83ca 463f 932a babc
00000110: ba4b c63d 750c 003f 43ab 19be e4d1 e53e
00000120: 4020 e33e ffe8 c8be ace9 14bf 6c11 303f
00000130: 01fe bbbe d42d 8abf ffa1 223e 9adf 3cbf
00000140: d160 5bbf b4aa 2e3f 045c 063e dd15 34bf
00000150: 510e 123e cbfc 273e d158 483e f20d 1c3e
00000160: dcc1 abbe 487f 22bf ab88 513f 8212 e63d
00000170: f10a 0abf b0d2 a83e 42eb 8f3c 5aaf 5bbc
00000180: adf8 e53e b8cf adbe 61c8 33bf 1e43 513e
00000190: 2659 413e 3283 24be 6c1f fdbd 1e3a 133e
000001a0: af03 853e 9a71 853d 11c5 cebe 3915 a3be
000001b0: bec7 38bd 1f6d b63c 094a f0bd 574e 843d
000001c0: 8617 0dbe db1a f83d 29e4 d43d 608f 8bbd
000001d0: c57f 593c 6076 3abd c9e0 2d3c fadf 173c
000001e0: 9738 7c3c 154c f4bc 52fe 25be 84f1 413d
000001f0: af1e e1bd 7a03 87bd c20c c33a 5311 a6bc
00000200: 66de 0cbd 5c92 04be a870 91bc 1a80 f03c
00000210: 7b98 edbd 187e fe3c 726b 0f3e 7349 a2bd
00000220: 365d 84bd 4bbb b1bd fa92 6ebd 28ae 6d3c
00000230: b218 be3d a48d fa3c 6bee c03d 6643 a8bd
00000240: e7c7 d7bd bdf8 fabc 1b64 3d3e 25c8 763d
00000250: c405 1bbd 4622 9ebd c830 debd 5432 b0bd
00000260: 97fa 453d 622f d23d 8d1d c53d c03b 3cbe
00000270: 8874 e83d 22e2 16be 9866 abbc 0120 95bd
00000280: 58a4 84bc 4ef4 f7bb 4de7 1dbd a97f dfbd
00000290: b42a 76bc 58f7 923d 84e9 b7bd b090 db3c
000002a0: 2d32 ccbd 4aad c1bb eb41 0b3e 4fa7 ee3c
000002b0: 2f62 493e 9ed5 473d 2cc6 99bd 9a72 0d3e
000002c0: 6110 3cbd 8a4e 6a3c deb5 3b3e fd3e 24be
000002d0: bd8a 4d3d da72 d8bd b333 a33c c5ea 9b3d
000002e0: e4a6 b23c cadd 48bd d991 bcbc 6392 c2bd
000002f0: f842 85be c199 c03d a643 dd3d f524 133d
00000300: 7b43 e5bd 4eea c0bb c6e0 4fbe 216a a2bd
00000310: e0d4 fabd 13b0 8dbb c8ba e4bc 5378 483d
00000320: f267 ba3b dd4c 843e 82a8 7abd 294d e3bd
00000330: 48ef db3c fbec 603e 48e9 36bd 1195 0f3e
00000340: 8a16 063d c498 47bd 5c4b d23a cc46 58bd
00000350: fff9 c4bc 3063 39bd 8afc 8bbc fc65 aabc
00000360: d240 36bd 2a80 9e3f d0b2 38bf cc76 0fbf
00000370: c1a6 673f e946 dd3e 6866 20bf 8c33 c8bd
00000380: 2800 b3bd a888 b23e 4428 7d3f 6b84 a8bf
00000390: 2c7b 3dbe bc09 593f 6ab9 14be 1013 eebd
000003a0: a53f 833d ee64 963d b083 0e3f 355d ac3f
000003b0: dd20 13bd 0ddc 51bf 05da 223f a2e8 4e3e
000003c0: 6156 edbf 8576 37bf 2e51 41bf 370a 32be
000003d0: fcd6 7f3e cbd3 24bf 68ce 863d 4e7a 503e
000003e0: 92f4 03be e8dc c3be 8263 873c 3bd9 913e
000003f0: 1966 aebe 16f1 af3d 9ebc f6be cf41 7dbe
-0.017305426 -0.38530192 -0.63283193 0.1450775 -0.05038573 -0.20740452 0.80647963 0.60924214
-0.23008567 -0.045341246 -0.6810919 -0.642664 0.16608621 -0.089565806 -0.38264206 1.068141
0.7396189 0.09130977 -0.13892233 -0.34782264 -0.08140523 0.14836401 -0.09134459 0.07320312
0.24014121 0.14773077 -0.100106366 -0.024655567 -0.10747475 -0.02438084 0.045169365 0.21273677
-0.035045583 -0.027751096 -0.036671493 0.006396156 0.0052453075 0.1316459 0.075115554 0.16738366
0.01191476 -0.052868046 0.040717907 -0.13481325 0.00046091064 -0.07990768 -0.007954058 -0.047981642
-0.106995925 -0.12298724 -0.022158653 0.13528943 -0.0014518489 -0.022441188 0.67613125 -0.55130005
-0.31836537 0.775784 -0.25952262 -0.3628959 0.5555086 -0.021055844 0.08331697 0.565108
-0.22623856 -0.06740381 0.7765276 -0.02272538 0.096824124 0.5001901 -0.15006737 0.44886696
0.44360542 -0.39240262 -0.58169055 0.68776584 -0.36717227 -1.0795236 0.15882109 -0.7377869
-0.85694605 0.6822922 0.13121039 -0.7034586 0.14263274 0.16405027 0.19565131 0.15239695
-0.3354634 -0.63475466 0.81849164 0.11233999 -0.53922945 0.32973242 0.017568234 -0.013408506
0.44916287 -0.3394754 -0.7022763 0.2043576 0.18881664 -0.16065672 -0.12359509 0.14377639
0.25979373 0.065158084 -0.40384725 -0.3185213 -0.045112364 0.02226883 -0.11732871 0.06460255
-0.13778505 0.12114497 0.103950806 -0.06814456 0.013275092 -0.045523047 0.010612675 0.009269709
0.015394351 -0.029821435 -0.16210297 0.047349468 -0.109921806 -0.0659246 0.0014881121 -0.020271933
-0.034391783 -0.12946457 -0.017753914 0.029357959 -0.11601349 0.031065986 0.14005831 -0.079241656
-0.06463091 -0.086783014 -0.058245637 0.014506854 0.09282054 0.030585118 0.094204746 -0.0821598
-0.10536175 -0.030636186 0.18495218 0.060249466 -0.037847295 -0.07721381 -0.10849148 -0.08603349
0.048334684 0.10262944 0.09624777 -0.18382168 0.113503516 -0.147347 -0.020922944 -0.07281495
-0.016191646 -0.007566965 -0.038550664 -0.10913021 -0.01502483 0.07176083 -0.089800864 0.02680239
-0.09970508 -0.0059105502 0.13599364 0.029132513 0.1966636 0.048787706 -0.075085014 0.13813248
-0.045914058 0.014300952 0.18331096 -0.16039653 0.05018114 -0.10568781 0.019922113 0.07613138
0.021808095 -0.04903964 -0.023018764 -0.09500577 -0.26027656 0.09404326 0.108039185 0.035923917
-0.111945115 -0.0058873063 -0.20300588 -0.07930399 -0.12247634 -0.004323968 -0.027921095 0.048942875
0.005688661 0.25839892 -0.061195858 -0.110987015 0.026847497 0.21965401 -0.044656068 0.14021708
0.03273634 -0.048729673 0.0016044187 -0.052801892 -0.024044989 -0.04526061 -0.017088193 -0.020800583
-0.04449541 1.2382863 -0.72147846 -0.56040645 0.9048882 0.43218163 -0.6265626 -0.09775457
-0.08740264 0.34869885 0.98889565 -1.3165411 -0.18504018 0.8478048 -0.14523855 -0.1162473
0.064086236 0.073434696 0.5566969 1.3465945 -0.035920013 -0.81976396 0.6361392 0.2020593
-1.8541986 -0.7166522 -0.75514495 -0.17386709 0.24984354 -0.6438567 0.065823376 0.20359156
-0.12886265 -0.38254476 0.016526941 0.28486046 -0.3406227 0.08590905 -0.48190778 -0.24732135

cnn.0.bias f4 [16]
00000000: 6a7e ddbe dff6 cdbf 79a3 a6c0 0324 b1be
00000010: 6493 e5bf d09c a3bf fc06 bebf bf00 f1bf
00000020: 2278 9fbf cdb7 94bf 2754 51c0 02a0 85bf
00000030: b648 ccbe 9854 42c0 07ba 31c0 49d2 93c0
-0.4326051 -1.6090964 -5.207455 -0.34597787 -1.7935605 -1.278223 -1.4845881 -1.8828353
-1.2458537 -1.1618592 -3.2707613 -1.0439456 -0.39899224 -3.0364132 -2.7769792 -4.6194196

cnn.3.weight f4 [32, 16, 3, 3]
00000000: ce0b d1bd c175 77be 05cc 79be e1b7 c1be
00000010: 172f 40be 30d3 293e 1ede fabc 12be 20bc
00000020: 014c bc3c aa4e 18bd 4e1b 82bd 7501 f7bd
00000030: 08d7 37bd 8d96 ed3d 73f9 cc3d ab06 d0bc
00000040: 7e70 403e 0d6a 483e d1c2 b0bf bbd9 743d
00000050: 3821 a5be 4724 71bd 7354 a2be 4030 03bf
00000060: 2878 9ebd abc3 23be 4bf6 8c3e dfeb 70be
00000070: 6c49 56be 64cb 413e 69b2 74be 782c cd3d
00000080: c8c2 85bd f650 2bbe c3ac e0be af60 1fbf
00000090: 7835 8dbd a165 233d 559f c2bd 565b 223d
000000a0: ffeb d03b f902 8ebe bb0e 0ebe 0d7d 05bd
000000b0: 9b80 0abf 6945 333c a987 873d 8733 7abe
000000c0: 95c9 57bc f8a6 17be 26d5 12be feea 213e
000000d0: a859 82bc 5767 383d da0b 213d 5b90 6e3d
000000e0: 4a6d 61bc bd46 133d f8ee d93d 7e4b a83b
000000f0: e20f 27be a155 2bbe 2ea0 94be 339c 973e
00000100: 5bc0 833d 6ceb 43be 4e41 963e bf06 5b3e
00000110: 6307 b6bc 56ff 683e c620 a23d c9bf 54be
00000120: 6c9a 1dbe 66e4 d73d ab03 d8bd 0c40 06bf
00000130: c50b 5c3d 1dc1 5ebe 621f 45be 90a4 02be
00000140: e3f8 debd faec 71bc a6d0 d73e fcfb 9e3d
00000150: fb5c 783e a7d1 86be 386b 57be 9bb9 193e
00000160: 3ef8 7fbc 55d5 f2bd 666e 65be 2510 693d
00000170: 00db 043d 7427 82bd 6c05 aebe 4745 573d
00000180: 1006 56be 266a a7be 7b6c c2be 67e0 5e3e
00000190: 0026 b13c dd7d 4d3c bff4 3b3e 7102 3b3c
000001a0: bedf 1e3d aaa6 013e 9ca7 c43d 0eb9 4bbc
000001b0: f7ea fbbd 1b0b 1d3d f51d 913c 3342 e6bd
000001c0: c5b5 ffbc 297c a73d ceff 06bc cfff 953d
000001d0: bbc9 613e 9094 593e cc62 fdbe cd7e 2abf
000001e0: 01ce 36bd a8d5 ccbe 34dd 06be 9806 5b3e
000001f0: b443 cabe 2bd1 e2bd 606e 6a3d 7e8c acbc
00000200: 5051 8a3c 5891 82be 8b93 22be f0c0 ab3e
00000210: aa20 1dbe 6d6d b9bd f286 5c3e fbe2 05be
00000220: a8c1 a9be dbd3 813e a9b9 bc3e f9a5 bcbe
00000230: 13ca 05be ff79 c03e f609 17bf dc1d dcbe
00000240: 1ed5 6abe e52c 13bd 8396 dcbd ce67 73bd
00000250: 41d1 4fbe ceb1 9dbd 8c4f 10bd 34c1 9dbd
00000260: 7d05 49be a6f2 55bd cae6 71bd 07ba 7c3d
00000270: 85b6 88bd 2eb5 92bd 6f7f 0d3d ed03 89bd
00000280: ba78 b5bd 91ea a03b eb7f 39bd e890 cebd
00000290: 78d0 62bd fd84 b3bd 8e97 26bc 7bd3 e5bd
000002a0: bd1c 4b3b 541c 8bbd 2f59 cbbd 879f d2bd
000002b0: bc3f 88be feee 9c3d 8c52 fabd 4727 75be
000002c0: ded2 d4bc 1fa1 67be 9bf9 a4bd 5a6a 5bbd
000002d0: d352 02be 5405 14bd 8394 b03c b006 18bd
000002e0: 6c1e 98bc b942 b4bc 8c28 88bc 2239 92bd
000002f0: d97c 8abd e50b 08be 55e7 cbbd 4938 0bbd
00000300: 8cdc bfbd de3d 26bd fc1a 21bd b661 50bd
00000310: 1084 d2bd 4cfb 5f3d 2391 10be 5490 2c3a
00000320: 62f9 18be 54fd cdbd a0f7 99bb e4ed 89bd
00000330: 7129 c5bb c764 0cbe d248 c8bd 1dde cdbd
00000340: fde6 03be d45b c6bd 176a f3bd 2020 c2bd
00000350: 6918 46be 6b38 c5bd 645a 58bd fdd6 4abe
00000360: 4571 47bd 349c 84ba 3e03 21be 34c3 38bc
00000370: 005e cebd a828 e2bd e0bb d4bd 5b70 28bd
00000380: a4b9 1ebe 7d1b 883c b5ed d6bc c9aa 9a3b
00000390: b4cd 1a3b 5bd8 30be 796b c5bd bce0 80bd
000003a0: 39b7 c8bd 965c 9bbe cd59 4cbd c67f 43bc
000003b0: 7a2b 543d 9026 b1bd 4efc a8bd 35f5 debd
000003c0: 7522 80bd b9b3 44bd d4af acbc ebde abbd
000003d0: d0aa a8bc e86e 913c d3ba 82bc c8bd 19be
000003e0: 6137 6b3c 38d2 e2bd c015 6fbd ec4c 37bd
000003f0: f08d 93bd 06f1 f7b9 ed53 bcbd dc9a 96bc
-0.1020733 -0.24166013 -0.24394234 -0.378356 -0.18767963 0.16584468 -0.030623492 -0.009810941
0.02298546 -0.037184395 -0.06352864 -0.12060825 -0.044882804 0.11600981 0.10008516 -0.025393805
0.18792912 0.19571705 -1.3809453 0.059777956 -0.32251906 -0.058872487 -0.31705055 -0.512455
-0.07737762 -0.1599261 0.27531657 -0.23527478 -0.20926446 0.18925244 -0.23896183 0.10018247
-0.06531292 -0.16730103 -0.43881807 -0.622569 -0.06894964 0.039891843 -0.095030464 0.039637886
0.006375789 -0.27736643 -0.13872807 -0.03258996 -0.54102486 0.010941842 0.06617672 -0.24433719
-0.0131706195 -0.14809787 -0.14339122 0.15812299 -0.015911892 0.045020428 0.039317943 0.058243137
-0.013758967 0.035956133 0.10641283 0.0051359525 -0.16314653 -0.16731884 -0.29028457 0.29611358
0.06433173 -0.19132775 0.293467 0.21389292 -0.02222032 0.22753653 0.07916407 -0.20776285
-0.15390939 0.105416104 -0.105475746 -0.5244148 0.05372216 -0.21753354 -0.19250253 -0.12758088
-0.10887315 -0.014765972 0.42151374 0.07762906 0.24254219 -0.26331827 -0.21036994 0.15012209
-0.01562315 -0.11857096 -0.22405395 0.056900162 0.032435417 -0.06355181 -0.33988512 0.052556302
-0.2090075 -0.32698172 -0.3797339 0.2176529 0.021624565 0.012542215 0.18355082 0.011414156
0.038787596 0.12661234 0.096022815 -0.012434257 -0.12300675 0.03834067 0.01771448 -0.11243095
-0.031214604 0.081779785 -0.0082396995 0.07324182 0.2204961 0.21248078 -0.4948944 -0.6659973
-0.044630054 -0.40006757 -0.1317032 0.21389234 -0.39504778 -0.11075052 0.057234168 -0.021063086
0.016884476 -0.25501513 -0.15876596 0.33545637 -0.15344492 -0.090540744 0.21535853 -0.13074867
-0.3315556 0.25356945 0.36860397 -0.36845377 -0.13065366 0.37593076 -0.58999574 -0.4299153
-0.2293286 -0.035931487 -0.10770895 -0.059425168 -0.20294668 -0.07699929 -0.03523211 -0.07702866
-0.19631 -0.05223336 -0.05905799 0.061700847 -0.06675438 -0.071634635 0.03454536 -0.06690202
-0.088609174 0.004910775 -0.045288008 -0.100862324 -0.055374593 -0.087656 -0.010167969 -0.11221977
0.003099247 -0.067925125 -0.0992912 -0.10284334 -0.26611125 0.07662772 -0.12222776 -0.23940764
-0.025979456 -0.22620057 -0.08055421 -0.05356822 -0.12726907 -0.036137894 0.02155519 -0.037115753
-0.018569194 -0.022004472 -0.016620897 -0.071398035 -0.06762094 -0.13285787 -0.099562325 -0.033989225
-0.09368238 -0.040586345 -0.039332375 -0.050874434 -0.10279095 0.054683015 -0.14117865 0.0006582786
-0.14938882 -0.10058084 -0.0046987087 -0.06734827 -0.006016903 -0.13710319 -0.09779514 -0.1005213
-0.12881084 -0.096854836 -0.118854694 -0.094787836 -0.19345249 -0.096299015 -0.05282058 -0.19808574
-0.048692007 -0.0010117353 -0.15723893 -0.011277009 -0.10076523 -0.11042911 -0.10387397 -0.041122776
-0.15500504 0.01661467 -0.026236394 0.004720066 0.0023621144 -0.17270033 -0.096396394 -0.06292865
-0.09800572 -0.30344075 -0.04989033 -0.011932319 0.051799275 -0.08649933 -0.08251248 -0.10886613
-0.06256572 -0.04802296 -0.021079935 -0.083921276 -0.020589262 0.01775308 -0.015958225 -0.15013802
0.014356465 -0.11075252 -0.05837035 -0.044751093 -0.07204807 -0.00047291088 -0.09195695 -0.01838439

cnn.3.bias f4 [32]
00000000: 86d2 063e 79c7 2abe 1887 113e eea4 60be
00000010: 8126 be3b 7158 89bd b327 adbe 3000 01bf
00000020: 2f50 a1be adc9 cabe 8133 d13b aba8 d5be
00000030: 7d68 f53b f428 38bf 2133 98be 667d 16be
00000040: 9c2f 2ebe f776 043e 1261 82bf 3a5e 2dbf
00000050: a8ed d1be c1dc b2be 964a b1bd f509 09bf
00000060: 9341 cdbe eb80 fbbe 3b4a 4bbf e5e9 89be
00000070: 7f28 43be 3492 02bf 3b88 063d d661 32be
0.13166246 -0.16677655 0.1421169 -0.21937916 0.00580293 -0.06706322 -0.3381935 -0.5039091
-0.31506488 -0.3960699 0.0063843136 -0.41730246 0.0074892626 -0.7193749 -0.29726508 -0.14696273
-0.17010349 0.12936006 -1.0185874 -0.67721903 -0.4100163 -0.34934047 -0.08656804 -0.5353082
-0.40089092 -0.49121794 -0.7941014 -0.2693626 -0.19058417 -0.5100434 0.032844763 -0.17420134

fc1.weight f4 [11, 672]
00000000: a3a3 22bf c61a 893e 4a51 10bf 052b a83f
00000010: c082 903e 3612 763d add6 933e 8b45 f1bd
00000020: 9ba1 663e 0e75 85bf a93c cfbf 2b25 e4bf
00000030: f058 3ebe f159 25be df3d 063f 54d3 173f
00000040: 594e 39bf d6d7 c13e 21e2 e9be 7fe3 67bf
00000050: 5217 14be 5ef0 96bd 911a babd aa61 f3bd
00000060: 1434 9ebd eed9 b0bd 6f30 37bd c611 babd
00000070: 87fc babd 4e2a d2bd eb4a f8bd dea8 dcbd
00000080: b5ce 02be 2fe9 06be 08df 83bd 2e52 3dbd
00000090: 302c febd a780 40be 81c0 04be 2b5d 23be
000000a0: 8ed8 d3bd 97b7 83bd 2dbd 25bc 517a 3cbf
000000b0: cc75 8bbf b6bc cabe 11d0 c9be 9a09 f7be
000000c0: e43e acbf e91c 0a3f e973 f83e 0a37 5dbf
000000d0: ba2b 1e3e 0da2 73be 7767 04be 2ca6 e9bf
000000e0: 4d18 7f3e d4a5 c1bf 957e 823f 0c4f e7bf
000000f0: 5978 29be 9d31 f3be de04 6fbf b561 b8bd
00000100: cdcd e2bc a1bc 02bd ba97 aebc 6575 2cbd
00000110: 7cb5 36bd a2bf 80bd 61ba 8cbd 8b3a 32bd
00000120: 2c38 15bd 6c6b 59bd 7b1e 40bd 78b8 44bd
00000130: 82e1 b8bd a98a b9bd 2058 86bd bf99 d4bc
00000140: 0196 03bd 5fc8 b7bd 48e1 8bbd 46da 72bd
00000150: 3b03 25bf 736a a6be 3b84 8ebe 652f 8bbf
00000160: 1d76 29bf 6a5d 26bf b550 21be 6fe3 6abf
00000170: 8d00 3d3f 529b d6be 8ec2 75be ba63 7dbf
00000180: aed0 75be 4e43 67bf fbfc 85be 2577 b1be
00000190: eba5 8abf 470a 0bbc 3b69 5dbe af3e 7ebe
000001a0: 3e12 04c0 d8d4 39c0 5030 a4bf 9e03 123f
000001b0: e834 cf3d c68b 19c0 533c fe3d 0784 b23e
000001c0: 88b7 f6bf 4205 f6bf d982 30bf f163 34bf
000001d0: 180d 57bf 223a 8fbc a723 f6bf 0e56 34be
000001e0: 9090 0fbf 41c6 ab3e 0345 2dbf 77fa 4fbf
000001f0: 1725 5cbf 7987 a53d feac b5bd ae01 f6bd
00000200: 49b5 06be 079b d6bd dd7a 28be 7813 08be
00000210: 82e2 00be 0ffc 91bd 8108 8dbd 2b67 0bbe
00000220: 4fc9 03be 4703 2fbe d9c2 fcbd 7ba0 e8bd
00000230: d2a0 7dbe 80e2 fcbd 5e4f ccbd 60ee f3bd
00000240: 7e44 a5bd 6718 febd 63ce debd 943f d8be
00000250: de3f 14bf 3b6b 78be c55e bebe a98a bdbe
00000260: 5aa6 ecbe 7f0b b2be 4654 ecbe 5185 09bf
00000270: 8b03 f7be e7a9 02bf 5e2b b7be edf8 b1be
00000280: e78d dbbe c7c9 9abe d140 a6be 5234 d9be
00000290: d003 e5be 86e5 c4be 5209 9abe a469 88be
000002a0: 7f83 2bbe 8106 0abe 2139 15be e6d9 3dbd
000002b0: 4a76 97bd a6a9 08be 255f aabd 519a 6bbc
000002c0: 0b22 55bd b9d4 16bd f668 08bd 473b 43bd
000002d0: 651c 86bd c7a9 30bc 7032 c0bc 3bf0 95bd
000002e0: 1432 98bd 64b2 01bc 5ba6 24bd 1b79 49bd
000002f0: 6c93 88bc c8bd d7bd cd7b 54bd 3bd9 e1bd
00000300: 180c e4bd 8816 cfbd 7bca e2bd 1788 a4bd
00000310: 85ed 63bd bbfc 8cbd e9ff d9bd db9c 1abe
00000320: 04ed c5bd 590b cebd e25a 22bd ac0b 0dbe
00000330: ff64 debd abe9 46be 3d17 ddbd 9442 f5bd
00000340: 01e6 03be 0ecc e4bd 8b4c dc3e 01ca 41bf
00000350: 0067 60bf d0a7 0cbf 3582 f4be 356a bdbe
00000360: d61c 71bf 1e2e 6a3f cfe9 0ebf 692f 3dbf
00000370: c8ba 123f 7595 9f3e cfd7 0e3f 1ad2 10bf
00000380: 76df 1e3e 88ec e53b d3c3 a6bf e79a 99bf
00000390: 061e 8cbf b6ce 573f 061c b5be e661 b1be
000003a0: 6556 afbe e8d3 7dbe 56dc 57be d071 8bbe
000003b0: c0bc b3be c799 c3be 5cd4 f4be 0b75 04bf
000003c0: 2482 24bf 2121 72be 7283 b2be bb8e 98be
000003d0: 726b d3be dc56 01bf acdc 14bf bec5 8fbe
000003e0: daba 4bbe 9960 70be fa88 7abe b8ac c9be
000003f0: 2eb9 aec0 513a 1bc0 56e0 81bc 7187 18bf
-0.6353094 0.2677824 -0.5637404 1.3138129 0.28224754 0.06007596 0.28874722 -0.117808424
0.22522585 -1.0426347 -1.6190387 -1.7823843 -0.18588614 -0.16147591 0.5243816 0.59306836
-0.72385174 0.37859982 -0.45680335 -0.90581506 -0.14462021 -0.07370065 -0.090870984 -0.11883862
-0.07724777 -0.08635317 -0.044723924 -0.09085421 -0.09130197 -0.10261975 -0.121236645 -0.10774396
-0.12774165 -0.1317489 -0.06439024 -0.04622095 -0.12410772 -0.18799077 -0.1296406 -0.1595351
-0.10344039 -0.06431501 -0.010115904 -0.7362414 -1.0895324 -0.395971 -0.39416555 -0.48249513
-1.3456693 0.53950363 0.48525932 -0.8641211 0.15446368 -0.23792286 -0.12930094 -1.8253837
0.24911614 -1.5128732 1.019488 -1.8070998 -0.16549815 -0.4749879 -0.933668 -0.09003011
-0.027686024 -0.03191817 -0.021312583 -0.042104144 -0.04460667 -0.06286551 -0.068714865 -0.043512862
-0.036430523 -0.05308096 -0.04690407 -0.048027486 -0.09027387 -0.090596505 -0.06559777 -0.025952218
-0.032125477 -0.08973765 -0.06830078 -0.059290193 -0.64458054 -0.3250309 -0.2783526 -1.0873839
-0.6619585 -0.6498629 -0.15753444 -0.91753286 0.73828965 -0.41915375 -0.23999998 -0.98980296
-0.24005386 -0.90337074 -0.2616957 -0.34661213 -1.0831884 -0.008486337 -0.21622173 -0.248286
-2.0636134 -2.903616 -1.2827244 0.5703677 0.10117513 -2.399156 0.1241385 0.34866354
-1.9274759 -1.9220355 -0.6894966 -0.70465 -0.84004354 -0.017483775 -1.922963 -0.17610952
-0.5607996 0.33549693 -0.6768343 -0.81241554 -0.85994095 0.0808248 -0.08870886 -0.12012039
-0.13155092 -0.10478788 -0.16453119 -0.13288677 -0.12586406 -0.071281545 -0.068863876 -0.13613574
-0.12869762 -0.17091094 -0.12341852 -0.11358734 -0.2476838 -0.12347889 -0.099760756 -0.11910701
-0.080697045 -0.12406998 -0.10879209 -0.42236006 -0.57909954 -0.24259655 -0.37181678 -0.37019852
-0.46220666 -0.34774396 -0.46158046 -0.5371905 -0.4824489 -0.510405 -0.35775274 -0.34760228
-0.428817 -0.3023207 -0.32471326 -0.4242273 -0.4472947 -0.38456362 -0.30085236 -0.26643097
-0.1674938 -0.13479044 -0.14572574 -0.046350382 -0.07395609 -0.13345966 -0.08318929 -0.014380054
-0.05203442 -0.036823962 -0.033303224 -0.047663953 -0.065483846 -0.010782666 -0.02346155 -0.07321211
-0.07431427 -0.007916067 -0.04019771 -0.04918776 -0.016671859 -0.10534245 -0.051875878 -0.110277615
-0.11135119 -0.10111719 -0.11073776 -0.080337696 -0.05564644 -0.06884142 -0.10644514 -0.15098898
-0.09664348 -0.10060758 -0.039637454 -0.13773984 -0.10859107 -0.19425075 -0.10795448 -0.119755894
-0.12880708 -0.11171733 0.43027148 -0.7569886 -0.87657166 -0.5494356 -0.4775559 -0.36995092
-0.94184625 0.9147662 -0.55825514 -0.7390047 0.57316256 0.31168714 0.5579805 -0.5657059
0.15514931 0.007016722 -1.3028511 -1.2000397 -1.0946662 0.8429979 -0.35372943 -0.34645003
-0.342456 -0.24787867 -0.21080145 -0.2723527 -0.35104942 -0.3820326 -0.47818267 -0.51741093
-0.6426108 -0.2364545 -0.3486591 -0.29796395 -0.41292912 -0.5052316 -0.5814922 -0.28080553
-0.19895497 -0.23474349 -0.24466315 -0.39389586 -5.460105 -2.4254344 -0.015854042 -0.5958167

fc1.bias f4 [11]
00000000: 7792 cebf 10c3 5f3f ab93 103f f148 873e
00000010: a485 9c3c 7d9e 91be b6cc fbbe ee02 18bf
00000020: ba4f 1abf 1275 44bf b816 4ac1
-1.6138448 0.87407017 0.56475323 0.26422837 0.019106694 -0.2844123 -0.4917962 -0.5937947
-0.60277903 -0.76741135 -12.630547

fc2.weight f4 [11, 672]
00000000: 5bb1 3d3e bc4d e7be 9166 f83d 9464 803e
00000010: 14f1 f03e 4f36 913e 3118 983d 924c a53c
00000020: 21a7 843d 7233 2c3d 5595 b1bf d008 2ac0
00000030: 9ece 85bf 16df 24be c2b1 a4bd b34d 51bd
00000040: 6cef 8dbe 665a 35bf bfa0 07be ad83 c13e
00000050: 082e 4c3d f6a6 09be 17cc 3dbe cf67 86bd
00000060: 3401 91bd d9a2 98bd 81e6 39bd 1051 e7bd
00000070: 695e 45be e071 d83b 4b3f 8b3e cf49 4dbe
00000080: 1b28 453d ab04 97bd 171f fa3d 0789 2fbe
00000090: ff69 8abd 96ac e03d 7f25 6cbd 5a70 41bc
000000a0: c31a 40bd 82d7 e63d 38b5 43be ea36 1ebf
000000b0: a12a b9be 1cac 8dbb f6cf 96bf e23a 4ebf
000000c0: 1213 cebb adf5 89be a46a 99be 1913 4abf
000000d0: 56e5 b3be e599 88bd 11c0 b0be c9b3 81bc
000000e0: be4a e0be d72a 363d 7644 a3be 296e 8fbf
000000f0: 2ea4 47be 9d79 bc3e d18c 28bf c790 63bd
00000100: 18a3 8fbb d6d7 7bbd 12c0 b8bc 9ef3 5c3c
00000110: cac3 6bbd 8e0e 01bd 4507 9ebc e105 963b
00000120: e344 5fbc 324d 75bd 137d 5dbd 28a9 063e
00000130: 1aa1 823c f628 d6bc cee0 3e3d 222e 4dbd
00000140: 3ae6 4fbd d336 d5bc de86 6cbb 7a17 10bd
00000150: 9692 afbe a83f bdbe c873 ad3b b475 833e
00000160: 2cc1 00bc 80df 51be f8a9 0fbf 7c69 66be
00000170: 302a 10bf 4388 adbe 47db 45be b321 c4bf
00000180: 50da 0fbf 8cb0 d1be 6ae0 31be b8fa d7be
00000190: 3d22 c9be 04ed b5be d8d2 5bbe c964 40be
000001a0: e3c8 80bd af69 c6be b128 efbe a035 35be
000001b0: 2d71 a0be 47dc a5bf 5c0b 30bf 1b4d b3be
000001c0: e025 13bf 9f78 03bf 920d 0dbf ef2f 4abe
000001d0: 7787 a6bf 7cae d3be ba5f 45bf b17c 28bf
000001e0: 7c48 2dbf 7189 bcbe 461b 18be 38aa 9fbc
000001f0: b196 953e edb9 edbe ef95 63bc 1e71 62bd
00000200: 1ece 90bd 9f03 48bd bd3d ccbc 16c4 b2bd
00000210: 748d 9ebd b841 7dbd 0c6c 16bd bd2a 9bbc
00000220: cc48 8fbd 3461 9dbd e2dc f5bc cb69 5ebd
00000230: 804f 01be 2b1d a7bc 4ddf 80bb 6eb1 053d
00000240: 9af2 89bc cad4 57bd bfc9 a0bd 7e84 fbbe
00000250: 36fd 51be cf35 75be f283 04be 3706 42be
00000260: e0f8 a4bd c424 46be adef 493e 991c 92be
00000270: 12b6 0fbe 63dc c3be bd0a b4be 0faa c7be
00000280: a052 b6be 34a7 b2be 8dff ecbe 44bb b6be
00000290: 5f60 c3be 3386 e4be a0c4 babe a488 a8be
000002a0: 5b79 f73d 8d86 0e3e 126c bc3d 3c9a bbbb
000002b0: ff9e 57be 526b efbd 50ff 99bd 342a fdbc
000002c0: cc08 a4bc 64e2 e9bc 1f00 25bd 279f eebc
000002d0: 360c cfbc b066 c73b b104 2bbd 9198 e33c
000002e0: dd67 843c bed7 bf3b 0cf2 21bb 69d9 9e3c
000002f0: 81f6 42bd fb42 0fbd 26e9 6fbd a629 88be
00000300: d940 90be 524e 7abe 263f 23be a389 c1bd
00000310: 2a0c fbbd a936 b2b9 88a4 a5be 332b cabe
00000320: adf1 40bd 3d19 10be cf70 59be 7c68 40be
00000330: 774d 01be 029f 9ebe e77b 7fbe b530 4dbe
00000340: b8f9 32be 78c3 72be baa3 0ebf 3546 d2be
00000350: 7a70 9fbd 4d28 04be 8b5e 4b3d 589a d8be
00000360: 15ea 19bf 3157 5abf 1ce2 f43c 6a90 553e
00000370: e02a 5abe ee64 37be 2c72 c7be 8ba9 f4be
00000380: c985 d6be ffac a7be ca5e 95be 9f8a c4bf
00000390: 0a77 a9be 0b0a 62bd 4def 3abe 16d8 ca3d
000003a0: ee50 443e 2b95 60be 939f 163b d817 4bbd
000003b0: bfb7 10be 767b f4bc 2ac0 16be ac07 f23d
000003c0: da72 b2be 50d4 82be c3f1 8fbe ad5c abbe
000003d0: 288c 2fbd 9911 20be 299f ef3d 8e9d 96be
000003e0: b8a0 32be 2a1f 18be d7a4 95be 1171 dabd
000003f0: 9022 84bf 17e2 76bf 5379 d8bf cc28 71bf
0.18524687 -0.45176494 0.12128938 0.25076735 0.47058928 0.28361747 0.07426489 0.020178113
0.0647719 0.04204125 -1.3873698 -2.6567879 -1.045368 -0.16100726 -0.08041717 -0.05109949
-0.27721727 -0.7084106 -0.13244914 0.37795773 0.049848586 -0.13442597 -0.18534885 -0.06562769
-0.070803076 -0.07452936 -0.04538584 -0.11294758 -0.19274296 0.006605372 0.27196726 -0.20047687
0.04813395 -0.07373937 0.12212961 -0.17142116 -0.067584984 0.10970418 -0.057652947 -0.011806572
-0.046900522 0.112715736 -0.19112098 -0.6180254 -0.36165336 -0.0043234956 -1.1782215 -0.805586
-0.0062888945 -0.26945248 -0.29964173 -0.7893539 -0.35135907 -0.06669978 -0.34521535 -0.015832799
-0.43807024 0.04447445 -0.3188817 -1.1205493 -0.19496223 0.36811534 -0.6583987 -0.055557992
-0.004383456 -0.061485134 -0.022552524 0.013485817 -0.057559766 -0.03150802 -0.019290576 0.0045783375
-0.013627264 -0.059888072 -0.05407436 0.13150465 0.01594596 -0.026142579 0.04660111 -0.050092824
-0.05075667 -0.026027119 -0.003609113 -0.03517864 -0.34291524 -0.36962628 0.005293343 0.25675738
-0.007858556 -0.20495415 -0.56118727 -0.22501177 -0.56314373 -0.33893022 -0.19321929 -1.5322784
-0.56192493 -0.40955007 -0.17370763 -0.4218347 -0.39283934 -0.3553239 -0.2146715 -0.18788446
-0.06288316 -0.38752505 -0.46710733 -0.17696238 -0.31336346 -1.2957848 -0.68767333 -0.35019764
-0.5747967 -0.5135593 -0.5509883 -0.19744848 -1.301009 -0.4134406 -0.7709919 -0.65815264
-0.6768873 -0.3682361 -0.14854154 -0.019490346 0.2921653 -0.46430913 -0.013890727 -0.05528366
-0.07070564 -0.04883158 -0.024931783 -0.08728807 -0.07741824 -0.061830252 -0.036724135 -0.018941278
-0.06996307 -0.07684556 -0.030012552 -0.05430011 -0.12627983 -0.02039965 -0.0039328695 0.032639913
-0.016839314 -0.052693166 -0.0785098 -0.4912452 -0.20506749 -0.23946308 -0.12940958 -0.18947683
-0.08055282 -0.19349962 0.19720335 -0.28537443 -0.14034298 -0.3825408 -0.35164443 -0.38996932
-0.35609913 -0.3489319 -0.4628872 -0.35689747 -0.38159463 -0.44633636 -0.36478138 -0.3291675
0.120836936 0.13918515 0.092003 -0.0057251733 -0.21056746 -0.116903916 -0.075194 -0.030903913
-0.020023726 -0.028550334 -0.04028332 -0.029128624 -0.025274377 0.0060852394 -0.04175252 0.02778271
0.016162807 0.005854576 -0.0024710922 0.019390779 -0.047598366 -0.034975987 -0.058571957 -0.26594275
-0.28174475 -0.2444394 -0.15942058 -0.0945008 -0.122581795 -0.0003399153 -0.3235209 -0.39486083
-0.04710548 -0.14072128 -0.2123444 -0.18789858 -0.12627207 -0.30980688 -0.24949609 -0.20038112
-0.17478073 -0.23707378 -0.55718577 -0.4106919 -0.07785125 -0.12905999 0.04965071 -0.42305255
-0.60122806 -0.85289294 0.029892974 0.20855871 -0.21305418 -0.17909595 -0.38954294 -0.477856
-0.41898945 -0.32749173 -0.2917388 -1.5354804 -0.33098632 -0.05518536 -0.18255349 0.09904496
0.19171497 -0.21931903 0.0022983297 -0.049583286 -0.14132594 -0.029844027 -0.14721742 0.118178695
-0.3485325 -0.25552607 -0.28114137 -0.33469144 -0.042858273 -0.15631713 0.11700279 -0.2941708
-0.17444122 -0.14855638 -0.29227325 -0.10666097 -1.0323048 -0.96438736 -1.6912025 -0.94202876

fc2.bias f4 [11]
00000000: 48f0 883d 833e a9bd c0bb cf3d 58c1 9a3d
00000010: f91b 75bd 2b75 69bd 5a76 02bd 34ef 2fbe
00000020: 7bf8 39be 898f 2ebe a038 4a3e
0.06686455 -0.08263876 0.10143232 0.07556409 -0.05984113 -0.056996506 -0.03185115 -0.17181093
-0.18161194 -0.17046942 0.19748163

fc3.weight f4 [11, 672]
00000000: b48e bb3e a0b7 fa3b 0a9b 6b3e d248 013e
00000010: ad1a 0a3f 1f8d 4a3d 84c8 f0be 8115 b6be
00000020: bf3e 03be 11d8 5dbf 5729 a7bf af34 3bc0
00000030: f26c fabf 12cf d5be 6897 02bf 8084 c2be
00000040: a703 11bf 4825 a0bf 2337 14bf 3aa1 9e3e
00000050: 4d50 d4be fa0c 44bd 1414 a0bd d247 a5bd
00000060: 5946 51bd 2613 723d 5dc0 143e 7e93 98bb
00000070: 28e2 e73d 8005 ec3d da66 553d dcc5 4bbe
00000080: 57e8 6cbd ecc5 c33d ec3a 1f3c 9739 ebbd
00000090: 4b58 873e 2c0f a9bd dbbe a3be fcda 24be
000000a0: a503 9b3d 59de 36be 31e1 8fbf c9c5 61bf
000000b0: 6af1 5ebf a74d 79bd 57d7 c83e 6e33 a1bf
000000c0: b2ef 28bf 21d1 e1bd 8f3c 6dbe 0c13 3ebf
000000d0: 54ab a7bf fca0 35bf bf2f 4dbf 5d70 28bf
000000e0: 5b91 04bf 8b71 81bf 4ff8 2bbf 4637 44bf
000000f0: 9921 a5bf f748 38be 1588 bebe 15d5 f1bb
00000100: 1193 79bd 3073 e6bb 9a1a 3ebd eb2f 6fbd
00000110: d52a 053c c404 03bd 092f b2bc 031a 58bd
00000120: 204a e03c d6a8 b7bd 9755 24bb 5703 1fbe
00000130: 9dce 7c3c 19a4 723d 9c60 43bd c607 abbb
00000140: 9b7a b43c 75b7 4cbd 01b9 41bd 4b6c ecbc
00000150: 4cba a1bf 7300 0dbf d4c0 53be 02b4 bebe
00000160: 869b 7bbe 90ba 303e e78e 33bf bc24 3cbf
00000170: 27ea 0cbf 1240 41bf e119 67bf a38a 60bf
00000180: e94e 4abf e1a2 3ebf 2478 e6be d858 febe
00000190: a097 afbe adb9 28bf 934e 91bf 415f 0bbf
000001a0: dfa8 36bf cd3e b5bf 25f8 83bf fe22 50bf
000001b0: 516b 25bf 622c 74bf 1e82 4abf d800 89bf
000001c0: cee0 91bf 2472 cebe 3f0c 02bf da76 1dbf
000001d0: 67cd 80bf 244e 87bf 3347 5fbf 34c8 9dbf
000001e0: 8782 36bf 1d5f 32be 5b97 05bf 1e1f 12bf
000001f0: 2c09 8cbe 965d 21bf 581a 3bbc c7fc a8bc
00000200: 79bc e4bc d85e 05bc c8de 86bd 9cf0 a5bd
00000210: c815 643c 621c b13c 0893 033c 2300 84bb
00000220: 1df0 b2bd 4615 3abd f2eb 82bd 9e57 93ba
00000230: 2ad5 c1be c086 1abb 5e85 62bd bfc3 5fbd
00000240: 9bb5 debc f265 a7bc 2a4f b83a 60af b6bd
00000250: 881f 47be 70b4 8abe e76c 0b3e fff9 9cbe
00000260: 68fd f8be cbfc a9be 4f63 e1be e38e 9cbe
00000270: 8284 17bf 94f2 24bb f221 b2be fb71 b8be
00000280: cd36 b3be f0da f9be 0712 81be 1eca c3be
00000290: 53ae a8be f033 cbbc 4a26 86be 3080 71be
000002a0: 5b5f 6cbe a6de afbd 5ab6 31bc 3f06 013d
000002b0: 81ba c13d 6824 783d 9d0c 0d3d 77d6 bebc
000002c0: c0fc 44bd c27d c8bc e7e6 ebbc 45e6 1ebd
000002d0: b5a8 18bb 0be7 10bc d13d 16bd dbb4 8bbd
000002e0: f05d 63bd d6d5 dd3c bbba 18bd dc23 83bd
000002f0: e8f7 95bc fad3 5fbe e082 5e3d 9c28 a4be
00000300: 9578 bebe f0a6 96be c14e 5dbe 5751 33be
00000310: 3d19 20be f317 853d 220f 8fbc 07ab 86be
00000320: 5821 99be 6306 6ebe a278 70be 4084 66be
00000330: ab8d 06bd f4ed a3be aff9 c8be f572 78be
00000340: c475 6cbe 9e6a a7be 5edb b6bf a72a 04bf
00000350: f9ea 4ebe ba90 d0be 2ed3 9dbe d034 74bf
00000360: 7d54 c5bf 4da4 25bf abf7 4abf 579d 4bbe
00000370: 8073 1abf fb49 99be 0ac7 8abe c209 2dbf
00000380: 139a c1bd 55ef 49bf 6b24 73be c85d 5abf
00000390: d5bb c6bf c824 b6be 9741 44bf f58c 593d
000003a0: ffe3 8b3c 0c39 17be 0370 bf3c 41e7 8fbe
000003b0: 58b9 c43c c02d 91bd 8368 b93d e9d3 8d3e
000003c0: 3f1f 0dbf 0aea 9cbe da6d 11be b4e4 403e
000003d0: ab81 1cbe 53a4 883d bf38 733e 6d26 aabe
000003e0: 4f91 16be 55fe 8a3d f0e4 083e 6a0b 95be
000003f0: d11b 92bf 248e 2ac0 916f 5cc0 b0d3 00c0
0.3663231 0.0076512843 0.23008361 0.12625435 0.53946954 0.04945099 -0.4702798 -0.3556328
-0.12816904 -0.86657816 -1.3059491 -2.9250906 -1.9564497 -0.41759545 -0.5101228 -0.37991714
-0.566462 -1.2511377 -0.5789663 0.3098238 -0.41467515 -0.047863938 -0.078163296 -0.08070339
-0.05109248 0.059100293 0.14526506 -0.0046562543 0.11322433 0.115244865 0.05210004 -0.19899696
-0.057838764 0.09559235 0.009718638 -0.11485594 0.2643455 -0.08254847 -0.3198155 -0.16099161
0.075690545 -0.17858256 -1.1240598 -0.8819242 -0.8708712 -0.06086507 0.3922679 -1.259382
-0.65990746 -0.11026216 -0.23167633 -0.74247813 -1.309916 -0.7094877 -0.8015098 -0.6579645
-0.51784295 -1.0112776 -0.67175764 -0.7664684 -1.2900878 -0.17996584 -0.37213197 -0.0073801377
-0.06093127 -0.0070327744 -0.046412088 -0.058395308 0.008127888 -0.031986967 -0.021750944 -0.05275918
0.027379096 -0.0896775 -0.002507543 -0.15528618 0.01543012 0.059238527 -0.047699556 -0.0052194325
0.02203112 -0.049979646 -0.047295574 -0.028860232 -1.2634978 -0.5507881 -0.20679027 -0.3724671
-0.24571046 0.17258668 -0.70139927 -0.7349355 -0.5504479 -0.7548839 -0.90273863 -0.8771154
-0.7902666 -0.74467283 -0.45013535 -0.49677157 -0.34295368 -0.6590832 -1.1352104 -0.5444222
-0.71351427 -1.415979 -1.0310103 -0.81303394 -0.64616877 -0.9538022 -0.79104793 -1.0703382
-1.139673 -0.40321457 -0.50799936 -0.6150948 -1.0062684 -1.0570722 -0.87218016 -1.2326722
-0.7129292 -0.17419095 -0.52184075 -0.5707873 -0.27350748 -0.63033426 -0.011419855 -0.020628346
-0.027921902 -0.008140288 -0.06585461 -0.08102533 0.013921209 0.02161998 0.00803066 -0.0040283366
-0.08737204 -0.045430444 -0.06392659 -0.0011241322 -0.37857944 -0.0023578852 -0.05530297 -0.054630037
-0.027186206 -0.020434354 0.0014061679 -0.08920169 -0.19445622 -0.27090788 0.13615762 -0.30659482
-0.48630834 -0.33200678 -0.4402108 -0.30577764 -0.59186566 -0.0025169002 -0.34791523 -0.3602446
-0.35002747 -0.4879985 -0.25209066 -0.3824014 -0.329455 -0.02480504 -0.26201087 -0.23584056
-0.2308325 -0.08587389 -0.010846699 0.031500097 0.09459401 0.060581595 0.034435857 -0.023295624
-0.048092604 -0.024474028 -0.028796626 -0.03879382 -0.0023293917 -0.008844147 -0.036680046 -0.06821605
-0.055509508 0.027079504 -0.037287455 -0.06403324 -0.018306687 -0.21858206 0.05432403 -0.32062232
-0.37201372 -0.29424238 -0.21612073 -0.17511497 -0.15634628 0.064987086 -0.01746327 -0.26302359
-0.29908252 -0.23244624 -0.23483518 -0.22511387 -0.03284995 -0.3201748 -0.39252993 -0.24262603
-0.23091799 -0.3269853 -1.4285696 -0.5162758 -0.20206822 -0.40735418 -0.3082518 -0.95393085
-1.5416409 -0.6470383 -0.7928416 -0.19884239 -0.6033249 -0.29939255 -0.2710498 -0.67593014
-0.094532155 -0.78880817 -0.23744361 -0.8529935 -1.5526072 -0.35574937 -0.7666258 0.053112943
0.01707649 -0.14767855 0.023368841 -0.2810612 0.02401416 -0.07088804 0.09053137 0.27700737
-0.551258 -0.30647308 -0.14202061 0.18837243 -0.1528384 0.06671967 0.23752116 -0.33232442
-0.14703868 0.06786791 0.13368583 -0.2911027 -1.1414739 -2.6649256 -3.4443095 -2.0129204

fc3.bias f4 [11]
00000000: a640 8fbe ea5b debe b005 d3be bab3 e7be
00000010: 004d f1be d015 81be 9563 09bf 065e 1cbf
00000020: 6867 0cbf 6df0 2bbf a1fe c83f
-0.2797901 -0.434295 -0.41215277 -0.45254308 -0.4712906 -0.25211954 -0.53667575 -0.6108097
-0.54845285 -0.67163736 1.5702707

fc4.weight f4 [11, 672]
00000000: f11c 16bf 2967 cdbe ef59 0fbf c4f5 91be
00000010: 0f2e 20bf 2319 cbbc d8ed f3be 7997 02be
00000020: e016 3bbf f73f b8bf da92 1ec0 a2be b1bf
00000030: b034 63c0 3878 d23d 6b67 50bf 0863 31bf
00000040: 270a 04c0 c6a8 b4bf 6355 02c0 e9e0 8bbe
00000050: a58b d43e fbda 2fbe ec35 45be be48 1ebe
00000060: 9157 f7bd e69d e0bd 3d0e ebbd cf9a c7bd
00000070: edca a0bd 759a a43c e00e 993c f63f 29be
00000080: bc7b b6bd 83b6 41be 42df e43c f91a 3ebe
00000090: 5b5b 763c 344f 153e 0e8a 2fbe c909 afbc
000000a0: 3678 01be 5cd4 27be 0d7c a2bf 62ca 023c
000000b0: fb73 14c0 3414 b1be 26b3 ccbf 0ee4 22c0
000000c0: d44f 5fbf cb68 fabf daf4 e8be a805 babf
000000d0: 7549 f6bf 7162 cbbf f2db 33bf 30d3 e4bc
000000e0: f255 503e f2ab 95bf 436f bebf 4898 d8bf
000000f0: 3e99 e6bf 7967 b5bf 237b 0fbf 110b afbd
00000100: bb5e 7ebd 4a1e 44bd ba3b 87bc 2f21 05bd
00000110: 41ca 05bd 7951 a7bd 51e0 77bd 60df 8dbd
00000120: 0362 c8bc 2417 28bd 4bca e3bc 37b6 9fbd
00000130: 5a4f 15bd 7ccc afbd 4a1a c2bd 3fd1 54bd
00000140: 7427 1ebd e11a c3bd b291 cdbd 6f73 0fbd
00000150: 8601 93bf de91 f2bf 7c28 e3be a425 a1bf
00000160: d86c 17bf f377 0abf 7a54 9dbf 807f 95bf
00000170: cf69 12c0 5440 fbbf 6f46 96bf 04d9 a0bf
00000180: 7ad2 14c0 5fa7 00c0 d85c 00bf ed6b e5bf
00000190: 0067 70bf 5475 d2bf 9171 b2bf 2599 66bf
000001a0: 31c1 d4bf e469 29c0 cb0b a1bf 1049 98bf
000001b0: 6601 94bf 62b1 bdbf 060c fabf 8527 5fc0
000001c0: a14e 22c0 2db6 c0bf fb56 dabe 5737 8dbf
000001d0: a531 8fbf 4c7d d2bf bfaf f7bf 0b99 d7bf
000001e0: 0b5b 83bf 2ba6 eebe 7b99 45bf 903e 90bf
000001f0: 3310 81bf 6b0d c5bf 36ed d6bd 6695 72bd
00000200: 1d4f f4bb 5d97 96bd ac1c 5f3b f75e d9bd
00000210: 3aac 1abd 224f b5bd 2c41 c5bd 525e e8bc
00000220: abce 5b3b 63be 053c 4a84 32bd 5597 5bbd
00000230: c9f1 203e 0a21 b2bd b858 08bc aeea 25bd
00000240: 64ea 973c f66e 4639 a82b 8e3d 8df4 dfbe
00000250: b226 f9be f971 79be 9907 e8be 2280 08be
00000260: 6e0e efbe 8199 c5be e485 8bbc 9c9e 9bbd
00000270: 88ef 0cbf 68d8 14be 04c7 d5be ab15 afbe
00000280: 7979 b9be 8020 03bf 7385 ccbe 021c 00bf
00000290: 9496 f3be eba3 dcbe d04e a3be 5171 67be
000002a0: a4a5 32be b76e d1bd d97a ccbd 006c 69bd
000002b0: 15c7 d4bb ecb4 ab3d 9756 eb3d 41b2 2bbc
000002c0: c0b4 a2bd e790 d9bc f093 4fbc 071b fcbc
000002d0: 0f94 14bd 9928 1fbd 93fa b8bc c389 00bc
000002e0: 53d3 77bd ba71 08bd 908f 37bc 910b 9bbc
000002f0: fb48 cdbc 15f9 73bd 6290 f4bd 0c9f 8dbe
00000300: db5a 25be 47f4 babd 84e7 cdbd 059c 05be
00000310: 4b3c 98bd 8f62 15be e2dc 97be 71ff 7ebe
00000320: be6e bdbd 03b6 02be 7c95 63be 6828 95bd
00000330: 8be0 31be 7b7b a7be c1ea 54be 661f babd
00000340: f30c 04be 57de 41be 7558 83bf 9e9c acbe
00000350: 41c7 4fbf 9d57 83bf 4dbe 53bf e229 8e3e
00000360: e21d 84bf 70da bbbf 2efd cbbf 0feb c6be
00000370: 409d 53bf f024 53bf 2b8c 2ebf f6d6 c0bf
00000380: abaf 14c0 a9a8 b2be 4c47 14bf 466e e0bf
00000390: ee61 efbf 0b14 1dc0 4c37 fabf d4d5 0ebd
000003a0: dd03 cbbd f69c 8e3b 5cbc 1cbe 8fa7 ebbd
000003b0: 5d8d e3bc fb1d 22be d0d8 84bd 424f 88be
000003c0: b870 54be 420e d0bd c7e8 ffbd 2df9 04bd
000003d0: 18a8 46be 95e4 8cbb 0aea 2bbe c4f9 8bbd
000003e0: f3dd 93be 4192 70bd 240b 24bd 93b6 cebd
000003f0: d003 00c0 0b8e cfbf 6fa5 3ec0 8dbc b5bf
-0.5863791 -0.40117767 -0.559966 -0.28507817 -0.6257028 -0.02479226 -0.47642398 -0.12753095
-0.7308178 -1.439452 -2.477713 -1.3886302 -3.5500908 0.10276836 -0.81407803 -0.69291735
-2.0631196 -1.4114006 -2.0364616 -0.2732003 0.4151279 -0.17173378 -0.19258851 -0.15457436
-0.12077249 -0.10967617 -0.11477325 -0.09746324 -0.07851205 0.020093182 0.01868385 -0.16528305
-0.08910319 -0.18917279 0.027938489 -0.18564977 0.015036429 0.14580995 -0.17142507 -0.02136697
-0.12643513 -0.16389602 -1.2694107 0.007982822 -2.319579 -0.34585726 -1.5992172 -2.5451694
-0.87231183 -1.956323 -0.45499307 -1.4532976 -1.9241167 -1.5889417 -0.70257485 -0.027932733
0.20345286 -1.1693099 -1.4877704 -1.6921473 -1.8015516 -1.4172202 -0.56047267 -0.085470326
-0.06210206 -0.04788045 -0.016507972 -0.03250235 -0.032663587 -0.081698366 -0.06051666 -0.06927371
-0.024460798 -0.041037694 -0.027806422 -0.077984266 -0.03645263 -0.08583924 -0.094776705 -0.051957365
-0.038611844 -0.09526611 -0.10037555 -0.035022195 -1.148484 -1.8950765 -0.44366825 -1.2589612
-0.5915046 -0.5408928 -1.2291405 -1.1679535 -2.287708 -1.9629006 -1.1740245 -1.2566228
-2.3253465 -2.0102155 -0.5014167 -1.7923561 -0.93907166 -1.6442056 -1.3940908 -0.9007743
-1.6621457 -2.647088 -1.2581724 -1.1897297 -1.1562927 -1.4819758 -1.9534919 -3.486787
-2.5360491 -1.5055596 -0.42644486 -1.1032513 -1.1187025 -1.6444488 -1.9350508 -1.684358
-1.0262159 -0.4661115 -0.7718732 -1.1269093 -1.0083069 -1.539472 -0.10494463 -0.05922451
-0.00745572 -0.07353089 0.003404419 -0.10613816 -0.037761904 -0.08852984 -0.09631571 -0.028365288
0.0033539932 0.0081630675 -0.043583192 -0.05361112 0.15717234 -0.08697708 -0.008321933 -0.04050701
0.018544383 0.00018924088 0.069419205 -0.43741265 -0.48662335 -0.24359883 -0.45318297 -0.13330129
-0.46690696 -0.38593677 -0.017031617 -0.07598612 -0.55052996 -0.14535677 -0.417534 -0.3419622
-0.3622549 -0.51221466 -0.39945564 -0.50042737 -0.4757582 -0.4309381 -0.31896067 -0.2260182
-0.17446 -0.10226195 -0.09984369 -0.056987762 -0.006493459 0.083841175 0.11491125 -0.010479511
-0.079446316 -0.026558353 -0.012669548 -0.030774606 -0.036274012 -0.038857076 -0.02258042 -0.007845345
-0.06050427 -0.033311583 -0.011203662 -0.018926414 -0.025059214 -0.059563715 -0.11941601 -0.27660406
-0.1614794 -0.091286235 -0.10053924 -0.13047798 -0.07433375 -0.14588378 -0.29660708 -0.2490213
-0.09249638 -0.12764744 -0.22224993 -0.072830975 -0.17370813 -0.32711396 -0.20792677 -0.0908802
-0.12895565 -0.18932472 -1.026137 -0.3371324 -0.8116341 -1.0261112 -0.8271225 0.2776633
-1.032162 -1.4676037 -1.5936639 -0.3885121 -0.8266182 -0.8247824 -0.6818263 -1.5065601
-2.323222 -0.34894302 -0.5792129 -1.7533653 -1.8701761 -2.4543483 -1.9548125 -0.03487189
-0.09912846 0.0043522073 -0.15306228 -0.11506569 -0.027777368 -0.15831749 -0.06486666 -0.2662297
-0.20746124 -0.101589695 -0.12495571 -0.032464195 -0.1940006 -0.00429971 -0.16788498 -0.068347484
-0.2888027 -0.05873323 -0.040049687 -0.10093417 -2.0002327 -1.6215223 -2.9788473 -1.4198166

fc4.bias f4 [11]
00000000: 701f 07bf e24b 84bf 6739 aabf 2466 8cbf
00000010: 2ef2 6bbf 376a a3bf d9d4 b3bf 3d7d abbf
00000020: a8b4 5ebf c83d b9bf 4881 3e40
-0.52782345 -1.0335658 -1.3298768 -1.0968671 -0.9216641 -1.2766789 -1.4049331 -1.3397595
-0.8699441 -1.4471979 2.9766407

fc5.weight f4 [11, 672]
00000000: 436f f0be 3a5b ca3f 90a0 37be ed9f 1fc0
00000010: a97c 94be 03bf b23f 403c 9d3f 2dab 45c1
00000020: eda0 24c1 edd5 05c1 b1ae f3c0 674b bec0
00000030: a2ad 2fc1 3bee 8b3f 5e89 1bc1 8290 15bf
00000040: cab7 40c0 977d 83c0 deeb b4c0 d9ea 41c1
00000050: 5390 933f 14ac 84bd f4d5 64bd efdd 14bd
00000060: 48e3 9fbd f815 52bd faf9 2cbd 174f 0bbd
00000070: 1806 39bd a4ff 5abd 52b4 50bc 48d8 33bd
00000080: 2bd6 82bd a361 43bc 4d52 08bd 062e 87bd
00000090: 8f72 16bd 9093 9ebd 7462 e5bc dfac 6fbd
000000a0: 1cce 25bd 3e73 67bd fbd7 4ec0 d468 3fc0
000000b0: 88bc 09c0 4b61 88c0 fc7e 79c0 658e 90c0
000000c0: 2c94 95bf e66e 7ac0 1f60 93c0 be71 d5bf
000000d0: 077d 86c0 8334 30c0 65e8 86c0 addd 09c0
000000e0: 2cb4 25c0 f533 9cbf 6ca8 cd3e 622e 6bc0
000000f0: 4129 82c0 4f2e d2c0 d066 f6be cb42 8ebd
00000100: 5fa3 32bd 3c63 e0bc ec30 b4bc a03e 67bd
00000110: eb49 52bc f211 e3bc 2ca1 51bd 9264 4cbd
00000120: cff1 97bd 0348 20bd 47a0 8ebd 8872 1bbd
00000130: c568 acbc bbd7 84bd fdc2 5dbd 0aeb 8dbd
00000140: b28f 7abd d552 36bc f256 adbd 0775 9cbc
00000150: 7c8d b8c0 9b62 8ac0 a848 78c0 4463 acc0
00000160: bdae 89c0 945f 9fc0 4531 84c0 bbb2 fdc0
00000170: b6be 0ec1 4866 80c0 d092 a2c0 1178 adbf
00000180: d6da cac0 e56e 95c0 8160 2ac1 d3a5 a3c0
00000190: 6f45 e0c0 a578 cac0 e81b f6c0 8de4 dec0
000001a0: 8fb6 9bc0 8edc debf bb44 febf bc23 0dc0
000001b0: ccc4 0fc0 a785 83c0 dcb5 06c0 0ab0 e7bf
000001c0: 1098 1fc0 be6c 72bc 81e1 a8c0 125f 00c0
000001d0: 89aa ccc0 41cf a3bf f1ef 4cc0 20cd 3f3e
000001e0: 551e 803f 9b09 04c0 4c16 02bd cdc0 4fbf
000001f0: 141a 183f af4a 28c0 6089 99bd 8575 9fbd
00000200: ce82 aebc c5ba a2bd 3f40 a4bd 3b7e a3bd
00000210: 9701 61bd 1bfb a0bd f8b8 8fbd 1e31 35bd
00000220: a30b bdbd 0320 19bd 8dc5 c3bd 5d22 10bd
00000230: 816d a2bd d87d 6abd d33a 6abd 52ca 99bd
00000240: fb30 7cbd 0836 5ebd 0bec bfbd 1f41 52be
00000250: c04c 27bd 75dd 79bd 6683 81bd 8508 2abd
00000260: 2355 96bd 6c2a 40bc 826c 1cbe de82 66bd
00000270: 6ccd a3bd a5ea 9fbd 46b7 a5bd 2a6b 9bbd
00000280: f73c a2bd f859 fbbc 6e62 93bd 9484 9cbd
00000290: ac28 adbc 3a32 bebd c9c4 16bd b458 19bd
000002a0: 490f 82bc 7d1e 9ebd 68b7 00bd a6c5 95bd
000002b0: ae67 1cbd 2c8f 5dbd ba40 a2bd b898 83bb
000002c0: c704 85bd b710 27bd 2342 2abd bdf2 46bc
000002d0: bf4d 71bd 639f 9bbb 6c67 89bd d839 4fbc
000002e0: 4ff9 abbc 6ca6 9abd 9fc7 91bd b4a0 43bd
000002f0: 7197 2ebd 0e50 0bbd 09c2 5cbd 2b7d 58bd
00000300: 93fe ccbc b6ff 82bd db83 a0bd 3787 9cbc
00000310: 582d 6ebd df70 15bd fc40 0cbc db16 9ebd
00000320: 94a5 abbc 2634 82bc 88aa 99bd 8bf1 52bd
00000330: 912b a8bc 592d 5bbd e887 47bd fe3d 5bbd
00000340: 3d8b 88bc 1c4f a4bd 8aa6 6bc0 acdf b4c0
00000350: fdce dcbf 50e9 b6bf 3d6f 86c0 081f a4c0
00000360: 2cb8 ccbf a9d8 f2c0 16a8 82c0 3d99 43bf
00000370: 5ed4 f5bf fb5f e6c0 cecb 2cc0 cf1c 32c0
00000380: 7b75 bec0 8639 e5c0 8b1f 68be d476 443e
00000390: 4925 47c0 0c10 ecc0 cf77 80c0 f180 12be
000003a0: 4140 17be 547f 9cbd 2bab ccbd 899c 10be
000003b0: 0e79 edbd 4e01 12be 8251 1cbe 6ebd 03be
000003c0: 42a0 03be 5d44 b9bd 26ee fcbd 7b97 e5bd
000003d0: 71f9 02be 5c03 42be db82 a0bd 4062 bbbd
000003e0: a39c 0dbe 22b8 d2bd bf8e 9dbd 8244 cbbd
000003f0: 8f90 89bf e936 a0bf c694 a6bf 2122 4cbf
-0.46959886 1.580909 -0.17932343 -2.494136 -0.29001358 1.3964542 1.2284012 -12.354291
-10.2892885 -8.364728 -7.6150746 -5.9467044 -10.979891 1.0932077 -9.721037 -0.58423626
-3.0112176 -4.109081 -5.6537924 -12.119836 1.1528419 -0.06478134 -0.055868104 -0.036344465
-0.07807022 -0.051290482 -0.042230584 -0.034010973 -0.045171827 -0.053466454 -0.012738304 -0.043907434
-0.063885055 -0.011925134 -0.033281613 -0.06600575 -0.036730345 -0.07742989 -0.028001048 -0.058514472
-0.040479764 -0.056506388 -3.2319324 -2.9907732 -2.152132 -4.2618766 -3.8983755 -4.517382
-1.1685843 -3.9130187 -4.6054835 -1.6675336 -4.202762 -2.753205 -4.2158685 -2.154155
-2.5891218 -1.2203356 0.40167558 -3.674706 -4.067536 -6.568153 -0.48125315 -0.069463335
-0.043612834 -0.027391069 -0.021995984 -0.05645621 -0.012835006 -0.027718518 -0.051179096 -0.0499006
-0.07419168 -0.039131176 -0.06964164 -0.037951022 -0.021046052 -0.0648646 -0.054141033 -0.06929596
-0.061172195 -0.011128147 -0.08463849 -0.019098772 -5.767271 -4.324537 -3.8794346 -5.3871174
-4.3025804 -4.9804173 -4.1310143 -7.9280677 -8.92156 -4.0124855 -5.0804214 -1.3552266
-6.3392134 -4.669787 -10.648561 -5.113992 -7.008476 -6.327227 -7.6909065 -6.9653993
-4.866035 -1.7411058 -1.9864725 -2.205306 -2.2463865 -4.110065 -2.1048498 -1.8100598
-2.4936562 -0.014796434 -5.2775273 -2.0058026 -6.3958173 -1.2797624 -3.2021449 0.18730593
1.0009257 -2.0630863 -0.031759545 -0.81153566 0.5941479 -2.6295583 -0.07496905 -0.07786087
-0.021302607 -0.0794578 -0.080200665 -0.07983061 -0.054933157 -0.078603946 -0.07017702 -0.044236295
-0.09230735 -0.037384044 -0.09559164 -0.03518902 -0.079310425 -0.05724892 -0.057185005 -0.07509293
-0.06157015 -0.054250747 -0.093711935 -0.20532654 -0.04084468 -0.061002214 -0.063238904 -0.04151203
-0.07340457 -0.011728864 -0.15275767 -0.05627715 -0.079981655 -0.07808427 -0.08091597 -0.07588799
-0.07921784 -0.030682549 -0.07196508 -0.07642475 -0.021137558 -0.09286924 -0.036808763 -0.03743811
-0.01587643 -0.07720659 -0.03142491 -0.07313089 -0.038184814 -0.054091617 -0.07922502 -0.004016008
-0.06495052 -0.040787425 -0.04156698 -0.012142834 -0.058912035 -0.004749225 -0.06709179 -0.012648068
-0.020992903 -0.07551274 -0.07118153 -0.04776068 -0.042624895 -0.034011893 -0.053895984 -0.052853744
-0.025023734 -0.06396429 -0.078376494 -0.019107444 -0.058148712 -0.036484595 -0.008560415 -0.07719203
-0.020952977 -0.015894007 -0.075032294 -0.051499885 -0.020528587 -0.053510044 -0.048713595 -0.053525917
-0.016667956 -0.080229014 -3.6820397 -5.6523037 -1.7250668 -1.4289951 -4.201079 -5.128788
-1.5993705 -7.588948 -4.0830183 -0.764057 -1.9205434 -7.1992164 -2.6999393 -2.7830083
-5.951841 -7.163272 -0.22668283 0.19185954 -3.1116507 -7.376959 -4.014625 -0.14307
-0.14770605 -0.076414734 -0.09993585 -0.14122213 -0.11595355 -0.1425831 -0.15265468 -0.1286523
-0.12854102 -0.090462424 -0.12350111 -0.11210533 -0.12790467 -0.18946594 -0.07837459 -0.09149599
-0.13829283 -0.10289027 -0.07693242 -0.09925176 -1.0747241 -1.2516757 -1.3014152 -0.79739577

fc5.bias f4 [11]
00000000: eaf2 91c0 88b9 84c0 9e17 5fc1 4f24 6ac0
00000010: 8fa9 5ec1 1f3b 9ac0 0a04 5ec1 fd44 82c0
00000020: a022 5ec1 77f8 b1c0 ad22 5340
-4.5609026 -4.147648 -13.943266 -3.658466 -13.916396 -4.819717 -13.875986 -4.0709214
-13.883453 -5.56158 3.2989914
